(venv) ➜  erav3-session8 git:(main) ✗ python train.py

Model Summary:
----------------------------------------------------------------
        Layer (type)               Output Shape         Param #
================================================================
            Conv2d-1           [-1, 12, 32, 32]             336
       BatchNorm2d-2           [-1, 12, 32, 32]              24
              ReLU-3           [-1, 12, 32, 32]               0
         ConvBlock-4           [-1, 12, 32, 32]               0
            Conv2d-5           [-1, 16, 32, 32]           1,744
       BatchNorm2d-6           [-1, 16, 32, 32]              32
              ReLU-7           [-1, 16, 32, 32]               0
         ConvBlock-8           [-1, 16, 32, 32]               0
            Conv2d-9           [-1, 16, 32, 32]             160
    DepthwiseConv-10           [-1, 16, 32, 32]               0
           Conv2d-11           [-1, 24, 32, 32]             408
    PointwiseConv-12           [-1, 24, 32, 32]               0
      BatchNorm2d-13           [-1, 24, 32, 32]              48
             ReLU-14           [-1, 24, 32, 32]               0
        ConvBlock-15           [-1, 24, 32, 32]               0
           Conv2d-16           [-1, 32, 32, 32]           6,944
      BatchNorm2d-17           [-1, 32, 32, 32]              64
             ReLU-18           [-1, 32, 32, 32]               0
        ConvBlock-19           [-1, 32, 32, 32]               0
           Conv2d-20           [-1, 48, 32, 32]          13,872
      BatchNorm2d-21           [-1, 48, 32, 32]              96
             ReLU-22           [-1, 48, 32, 32]               0
        ConvBlock-23           [-1, 48, 32, 32]               0
           Conv2d-24           [-1, 64, 32, 32]          27,712
      BatchNorm2d-25           [-1, 64, 32, 32]             128
             ReLU-26           [-1, 64, 32, 32]               0
        ConvBlock-27           [-1, 64, 32, 32]               0
           Conv2d-28           [-1, 96, 32, 32]          55,392
      BatchNorm2d-29           [-1, 96, 32, 32]             192
             ReLU-30           [-1, 96, 32, 32]               0
        ConvBlock-31           [-1, 96, 32, 32]               0
AdaptiveAvgPool2d-32             [-1, 96, 1, 1]               0
          Flatten-33                   [-1, 96]               0
           Linear-34                   [-1, 10]             970
================================================================
Total params: 108,122
Trainable params: 108,122
Non-trainable params: 0
----------------------------------------------------------------
Input size (MB): 0.01
Forward/backward pass size (MB): 9.56
Params size (MB): 0.41
Estimated Total Size (MB): 9.99
----------------------------------------------------------------

Total Parameters: 108,122
…
